…
	Number of train images: 3550
	Dataset enlarge ratio: 100
	Batch size per gpu: 8
	World size (gpu number): 4
	Require iter number per epoch: 11094
	Total epochs: 46; iters: 500000.
2022-07-28 14:43:18,848 INFO: Dataset [PairedImageDataset] - Set5 is built.
2022-07-28 14:43:18,848 INFO: Number of val images/folders in Set5: 5
2022-07-28 14:43:19,048 INFO: Network [CrossFormer] is created.
2022-07-28 14:43:24,230 INFO: Network: DistributedDataParallel - CrossFormer, with parameters: 10,779,407
2022-07-28 14:43:24,230 INFO: CrossFormer(
  (patch_embed): PatchEmbed(
    (projs): ModuleList(
      (0): Conv2d(3, 90, kernel_size=(1, 1), stride=(1, 1))
      (1): Conv2d(3, 90, kernel_size=(3, 3), stride=(1, 1), padding=(1, 1))
    )
    (norm): LayerNorm((180,), eps=1e-05, elementwise_affine=True)
  )
  (pos_drop): Dropout(p=0.0, inplace=False)
  (layers): ModuleList(
    (0): Stage(
      dim=180, depth=6
      (blocks): ModuleList(
        (0): CrossFormerBlock(
          dim=180, input_resolution=(64, 64), num_heads=6, group_size=8, lsda_flag=0, mlp_ratio=2
          (norm1): LayerNorm((180,), eps=1e-05, elementwise_affine=True)
          (attn): Attention(
            dim=180, num_heads=6
            (pos): DynamicPosBias(
              (pos_proj): Linear(in_features=2, out_features=11, bias=True)
              (pos1): Sequential(
                (0): LayerNorm((11,), eps=1e-05, elementwise_affine=True)
                (1): ReLU(inplace=True)
                (2): Linear(in_features=11, out_features=11, bias=True)
              )
              (pos2): Sequential(
                (0): LayerNorm((11,), eps=1e-05, elementwise_affine=True)
                (1): ReLU(inplace=True)
                (2): Linear(in_features=11, out_features=11, bias=True)
              )
              (pos3): Sequential(
                (0): LayerNorm((11,), eps=1e-05, elementwise_affine=True)
                (1): ReLU(inplace=True)
                (2): Linear(in_features=11, out_features=6, bias=True)
              )
            )
            (qkv): Linear(in_features=180, out_features=540, bias=True)
            (attn_drop): Dropout(p=0.0, inplace=False)
            (proj): Linear(in_features=180, out_features=180, bias=True)
            (proj_drop): Dropout(p=0.0, inplace=False)
            (softmax): Softmax(dim=-1)
          )
          (drop_path): Identity()
          (norm2): LayerNorm((180,), eps=1e-05, elementwise_affine=True)
          (mlp): Mlp(
            (fc1): Linear(in_features=180, out_features=360, bias=True)
            (act): GELU()
            (fc2): Linear(in_features=360, out_features=180, bias=True)
            (drop): Dropout(p=0.0, inplace=False)
          )
        )
        (1): CrossFormerBlock(
          dim=180, input_resolution=(64, 64), num_heads=6, group_size=8, lsda_flag=1, mlp_ratio=2
          (norm1): LayerNorm((180,), eps=1e-05, elementwise_affine=True)
          (attn): Attention(
            dim=180, num_heads=6
            (pos): DynamicPosBias(
              (pos_proj): Linear(in_features=2, out_features=11, bias=True)
              (pos1): Sequential(
                (0): LayerNorm((11,), eps=1e-05, elementwise_affine=True)
                (1): ReLU(inplace=True)
                (2): Linear(in_features=11, out_features=11, bias=True)
              )
              (pos2): Sequential(
                (0): LayerNorm((11,), eps=1e-05, elementwise_affine=True)
                (1): ReLU(inplace=True)
                (2): Linear(in_features=11, out_features=11, bias=True)
              )
              (pos3): Sequential(
                (0): LayerNorm((11,), eps=1e-05, elementwise_affine=True)
                (1): ReLU(inplace=True)
                (2): Linear(in_features=11, out_features=6, bias=True)
              )
            )
            (qkv): Linear(in_features=180, out_features=540, bias=True)
            (attn_drop): Dropout(p=0.0, inplace=False)
            (proj): Linear(in_features=180, out_features=180, bias=True)
            (proj_drop): Dropout(p=0.0, inplace=False)
            (softmax): Softmax(dim=-1)
          )
          (drop_path): DropPath(drop_prob=0.003)
          (norm2): LayerNorm((180,), eps=1e-05, elementwise_affine=True)
          (mlp): Mlp(
            (fc1): Linear(in_features=180, out_features=360, bias=True)
            (act): GELU()
            (fc2): Linear(in_features=360, out_features=180, bias=True)
            (drop): Dropout(p=0.0, inplace=False)
          )
        )
        (2): CrossFormerBlock(
          dim=180, input_resolution=(64, 64), num_heads=6, group_size=8, lsda_flag=0, mlp_ratio=2
          (norm1): LayerNorm((180,), eps=1e-05, elementwise_affine=True)
          (attn): Attention(
            dim=180, num_heads=6
            (pos): DynamicPosBias(
              (pos_proj): Linear(in_features=2, out_features=11, bias=True)
              (pos1): Sequential(
                (0): LayerNorm((11,), eps=1e-05, elementwise_affine=True)
                (1): ReLU(inplace=True)
                (2): Linear(in_features=11, out_features=11, bias=True)
              )
              (pos2): Sequential(
                (0): LayerNorm((11,), eps=1e-05, elementwise_affine=True)
                (1): ReLU(inplace=True)
                (2): Linear(in_features=11, out_features=11, bias=True)
              )
              (pos3): Sequential(
                (0): LayerNorm((11,), eps=1e-05, elementwise_affine=True)
                (1): ReLU(inplace=True)
                (2): Linear(in_features=11, out_features=6, bias=True)
              )
            )
            (qkv): Linear(in_features=180, out_features=540, bias=True)
            (attn_drop): Dropout(p=0.0, inplace=False)
            (proj): Linear(in_features=180, out_features=180, bias=True)
            (proj_drop): Dropout(p=0.0, inplace=False)
            (softmax): Softmax(dim=-1)
          )
          (drop_path): DropPath(drop_prob=0.006)
          (norm2): LayerNorm((180,), eps=1e-05, elementwise_affine=True)
          (mlp): Mlp(
            (fc1): Linear(in_features=180, out_features=360, bias=True)
            (act): GELU()
            (fc2): Linear(in_features=360, out_features=180, bias=True)
            (drop): Dropout(p=0.0, inplace=False)
          )
        )
        (3): CrossFormerBlock(
          dim=180, input_resolution=(64, 64), num_heads=6, group_size=8, lsda_flag=1, mlp_ratio=2
          (norm1): LayerNorm((180,), eps=1e-05, elementwise_affine=True)
          (attn): Attention(
            dim=180, num_heads=6
            (pos): DynamicPosBias(
              (pos_proj): Linear(in_features=2, out_features=11, bias=True)
              (pos1): Sequential(
                (0): LayerNorm((11,), eps=1e-05, elementwise_affine=True)
                (1): ReLU(inplace=True)
                (2): Linear(in_features=11, out_features=11, bias=True)
              )
              (pos2): Sequential(
                (0): LayerNorm((11,), eps=1e-05, elementwise_affine=True)
                (1): ReLU(inplace=True)
                (2): Linear(in_features=11, out_features=11, bias=True)
              )
              (pos3): Sequential(
                (0): LayerNorm((11,), eps=1e-05, elementwise_affine=True)
                (1): ReLU(inplace=True)
                (2): Linear(in_features=11, out_features=6, bias=True)
              )
            )
            (qkv): Linear(in_features=180, out_features=540, bias=True)
            (attn_drop): Dropout(p=0.0, inplace=False)
            (proj): Linear(in_features=180, out_features=180, bias=True)
            (proj_drop): Dropout(p=0.0, inplace=False)
            (softmax): Softmax(dim=-1)
          )
          (drop_path): DropPath(drop_prob=0.009)
          (norm2): LayerNorm((180,), eps=1e-05, elementwise_affine=True)
          (mlp): Mlp(
            (fc1): Linear(in_features=180, out_features=360, bias=True)
            (act): GELU()
            (fc2): Linear(in_features=360, out_features=180, bias=True)
            (drop): Dropout(p=0.0, inplace=False)
          )
        )
        (4): CrossFormerBlock(
          dim=180, input_resolution=(64, 64), num_heads=6, group_size=8, lsda_flag=0, mlp_ratio=2
          (norm1): LayerNorm((180,), eps=1e-05, elementwise_affine=True)
          (attn): Attention(
            dim=180, num_heads=6
            (pos): DynamicPosBias(
              (pos_proj): Linear(in_features=2, out_features=11, bias=True)
              (pos1): Sequential(
                (0): LayerNorm((11,), eps=1e-05, elementwise_affine=True)
                (1): ReLU(inplace=True)
                (2): Linear(in_features=11, out_features=11, bias=True)
              )
              (pos2): Sequential(
                (0): LayerNorm((11,), eps=1e-05, elementwise_affine=True)
                (1): ReLU(inplace=True)
                (2): Linear(in_features=11, out_features=11, bias=True)
              )
              (pos3): Sequential(
                (0): LayerNorm((11,), eps=1e-05, elementwise_affine=True)
                (1): ReLU(inplace=True)
                (2): Linear(in_features=11, out_features=6, bias=True)
              )
            )
            (qkv): Linear(in_features=180, out_features=540, bias=True)
            (attn_drop): Dropout(p=0.0, inplace=False)
            (proj): Linear(in_features=180, out_features=180, bias=True)
            (proj_drop): Dropout(p=0.0, inplace=False)
            (softmax): Softmax(dim=-1)
          )
          (drop_path): DropPath(drop_prob=0.011)
          (norm2): LayerNorm((180,), eps=1e-05, elementwise_affine=True)
          (mlp): Mlp(
            (fc1): Linear(in_features=180, out_features=360, bias=True)
            (act): GELU()
            (fc2): Linear(in_features=360, out_features=180, bias=True)
            (drop): Dropout(p=0.0, inplace=False)
          )
        )
        (5): CrossFormerBlock(
          dim=180, input_resolution=(64, 64), num_heads=6, group_size=8, lsda_flag=1, mlp_ratio=2
          (norm1): LayerNorm((180,), eps=1e-05, elementwise_affine=True)
          (attn): Attention(
            dim=180, num_heads=6
            (pos): DynamicPosBias(
              (pos_proj): Linear(in_features=2, out_features=11, bias=True)
              (pos1): Sequential(
                (0): LayerNorm((11,), eps=1e-05, elementwise_affine=True)
                (1): ReLU(inplace=True)
                (2): Linear(in_features=11, out_features=11, bias=True)
              )
              (pos2): Sequential(
                (0): LayerNorm((11,), eps=1e-05, elementwise_affine=True)
                (1): ReLU(inplace=True)
                (2): Linear(in_features=11, out_features=11, bias=True)
              )
              (pos3): Sequential(
                (0): LayerNorm((11,), eps=1e-05, elementwise_affine=True)
                (1): ReLU(inplace=True)
                (2): Linear(in_features=11, out_features=6, bias=True)
              )
            )
            (qkv): Linear(in_features=180, out_features=540, bias=True)
            (attn_drop): Dropout(p=0.0, inplace=False)
            (proj): Linear(in_features=180, out_features=180, bias=True)
            (proj_drop): Dropout(p=0.0, inplace=False)
            (softmax): Softmax(dim=-1)
          )
          (drop_path): DropPath(drop_prob=0.014)
          (norm2): LayerNorm((180,), eps=1e-05, elementwise_affine=True)
          (mlp): Mlp(
            (fc1): Linear(in_features=180, out_features=360, bias=True)
            (act): GELU()
            (fc2): Linear(in_features=360, out_features=180, bias=True)
            (drop): Dropout(p=0.0, inplace=False)
          )
        )
      )
      (downsample): PatchMerging(
        input_resolution=(64, 64), dim=180
        (reductions): ModuleList(
          (0): Conv2d(180, 90, kernel_size=(1, 1), stride=(1, 1))
          (1): Conv2d(180, 90, kernel_size=(3, 3), stride=(1, 1), padding=(1, 1))
        )
        (norm): LayerNorm((180,), eps=1e-05, elementwise_affine=True)
      )
    )
    (1): Stage(
      dim=180, depth=6
      (blocks): ModuleList(
        (0): CrossFormerBlock(
          dim=180, input_resolution=(64, 64), num_heads=6, group_size=8, lsda_flag=0, mlp_ratio=2
          (norm1): LayerNorm((180,), eps=1e-05, elementwise_affine=True)
          (attn): Attention(
            dim=180, num_heads=6
            (pos): DynamicPosBias(
              (pos_proj): Linear(in_features=2, out_features=11, bias=True)
              (pos1): Sequential(
                (0): LayerNorm((11,), eps=1e-05, elementwise_affine=True)
                (1): ReLU(inplace=True)
                (2): Linear(in_features=11, out_features=11, bias=True)
              )
              (pos2): Sequential(
                (0): LayerNorm((11,), eps=1e-05, elementwise_affine=True)
                (1): ReLU(inplace=True)
                (2): Linear(in_features=11, out_features=11, bias=True)
              )
              (pos3): Sequential(
                (0): LayerNorm((11,), eps=1e-05, elementwise_affine=True)
                (1): ReLU(inplace=True)
                (2): Linear(in_features=11, out_features=6, bias=True)
              )
            )
            (qkv): Linear(in_features=180, out_features=540, bias=True)
            (attn_drop): Dropout(p=0.0, inplace=False)
            (proj): Linear(in_features=180, out_features=180, bias=True)
            (proj_drop): Dropout(p=0.0, inplace=False)
            (softmax): Softmax(dim=-1)
          )
          (drop_path): DropPath(drop_prob=0.017)
          (norm2): LayerNorm((180,), eps=1e-05, elementwise_affine=True)
          (mlp): Mlp(
            (fc1): Linear(in_features=180, out_features=360, bias=True)
            (act): GELU()
            (fc2): Linear(in_features=360, out_features=180, bias=True)
            (drop): Dropout(p=0.0, inplace=False)
          )
        )
        (1): CrossFormerBlock(
          dim=180, input_resolution=(64, 64), num_heads=6, group_size=8, lsda_flag=1, mlp_ratio=2
          (norm1): LayerNorm((180,), eps=1e-05, elementwise_affine=True)
          (attn): Attention(
            dim=180, num_heads=6
            (pos): DynamicPosBias(
              (pos_proj): Linear(in_features=2, out_features=11, bias=True)
              (pos1): Sequential(
                (0): LayerNorm((11,), eps=1e-05, elementwise_affine=True)
                (1): ReLU(inplace=True)
                (2): Linear(in_features=11, out_features=11, bias=True)
              )
              (pos2): Sequential(
                (0): LayerNorm((11,), eps=1e-05, elementwise_affine=True)
                (1): ReLU(inplace=True)
                (2): Linear(in_features=11, out_features=11, bias=True)
              )
              (pos3): Sequential(
                (0): LayerNorm((11,), eps=1e-05, elementwise_affine=True)
                (1): ReLU(inplace=True)
                (2): Linear(in_features=11, out_features=6, bias=True)
              )
            )
            (qkv): Linear(in_features=180, out_features=540, bias=True)
            (attn_drop): Dropout(p=0.0, inplace=False)
            (proj): Linear(in_features=180, out_features=180, bias=True)
            (proj_drop): Dropout(p=0.0, inplace=False)
            (softmax): Softmax(dim=-1)
          )
          (drop_path): DropPath(drop_prob=0.020)
          (norm2): LayerNorm((180,), eps=1e-05, elementwise_affine=True)
          (mlp): Mlp(
            (fc1): Linear(in_features=180, out_features=360, bias=True)
            (act): GELU()
            (fc2): Linear(in_features=360, out_features=180, bias=True)
            (drop): Dropout(p=0.0, inplace=False)
          )
        )
        (2): CrossFormerBlock(
          dim=180, input_resolution=(64, 64), num_heads=6, group_size=8, lsda_flag=0, mlp_ratio=2
          (norm1): LayerNorm((180,), eps=1e-05, elementwise_affine=True)
          (attn): Attention(
            dim=180, num_heads=6
            (pos): DynamicPosBias(
              (pos_proj): Linear(in_features=2, out_features=11, bias=True)
              (pos1): Sequential(
                (0): LayerNorm((11,), eps=1e-05, elementwise_affine=True)
                (1): ReLU(inplace=True)
                (2): Linear(in_features=11, out_features=11, bias=True)
              )
              (pos2): Sequential(
                (0): LayerNorm((11,), eps=1e-05, elementwise_affine=True)
                (1): ReLU(inplace=True)
                (2): Linear(in_features=11, out_features=11, bias=True)
              )
              (pos3): Sequential(
                (0): LayerNorm((11,), eps=1e-05, elementwise_affine=True)
                (1): ReLU(inplace=True)
                (2): Linear(in_features=11, out_features=6, bias=True)
              )
            )
            (qkv): Linear(in_features=180, out_features=540, bias=True)
            (attn_drop): Dropout(p=0.0, inplace=False)
            (proj): Linear(in_features=180, out_features=180, bias=True)
            (proj_drop): Dropout(p=0.0, inplace=False)
            (softmax): Softmax(dim=-1)
          )
          (drop_path): DropPath(drop_prob=0.023)
          (norm2): LayerNorm((180,), eps=1e-05, elementwise_affine=True)
          (mlp): Mlp(
            (fc1): Linear(in_features=180, out_features=360, bias=True)
            (act): GELU()
            (fc2): Linear(in_features=360, out_features=180, bias=True)
            (drop): Dropout(p=0.0, inplace=False)
          )
        )
        (3): CrossFormerBlock(
          dim=180, input_resolution=(64, 64), num_heads=6, group_size=8, lsda_flag=1, mlp_ratio=2
          (norm1): LayerNorm((180,), eps=1e-05, elementwise_affine=True)
          (attn): Attention(
            dim=180, num_heads=6
            (pos): DynamicPosBias(
              (pos_proj): Linear(in_features=2, out_features=11, bias=True)
              (pos1): Sequential(
                (0): LayerNorm((11,), eps=1e-05, elementwise_affine=True)
                (1): ReLU(inplace=True)
                (2): Linear(in_features=11, out_features=11, bias=True)
              )
              (pos2): Sequential(
                (0): LayerNorm((11,), eps=1e-05, elementwise_affine=True)
                (1): ReLU(inplace=True)
                (2): Linear(in_features=11, out_features=11, bias=True)
              )
              (pos3): Sequential(
                (0): LayerNorm((11,), eps=1e-05, elementwise_affine=True)
                (1): ReLU(inplace=True)
                (2): Linear(in_features=11, out_features=6, bias=True)
              )
            )
            (qkv): Linear(in_features=180, out_features=540, bias=True)
            (attn_drop): Dropout(p=0.0, inplace=False)
            (proj): Linear(in_features=180, out_features=180, bias=True)
            (proj_drop): Dropout(p=0.0, inplace=False)
            (softmax): Softmax(dim=-1)
          )
          (drop_path): DropPath(drop_prob=0.026)
          (norm2): LayerNorm((180,), eps=1e-05, elementwise_affine=True)
          (mlp): Mlp(
            (fc1): Linear(in_features=180, out_features=360, bias=True)
            (act): GELU()
            (fc2): Linear(in_features=360, out_features=180, bias=True)
            (drop): Dropout(p=0.0, inplace=False)
          )
        )
        (4): CrossFormerBlock(
          dim=180, input_resolution=(64, 64), num_heads=6, group_size=8, lsda_flag=0, mlp_ratio=2
          (norm1): LayerNorm((180,), eps=1e-05, elementwise_affine=True)
          (attn): Attention(
            dim=180, num_heads=6
            (pos): DynamicPosBias(
              (pos_proj): Linear(in_features=2, out_features=11, bias=True)
              (pos1): Sequential(
                (0): LayerNorm((11,), eps=1e-05, elementwise_affine=True)
                (1): ReLU(inplace=True)
                (2): Linear(in_features=11, out_features=11, bias=True)
              )
              (pos2): Sequential(
                (0): LayerNorm((11,), eps=1e-05, elementwise_affine=True)
                (1): ReLU(inplace=True)
                (2): Linear(in_features=11, out_features=11, bias=True)
              )
              (pos3): Sequential(
                (0): LayerNorm((11,), eps=1e-05, elementwise_affine=True)
                (1): ReLU(inplace=True)
                (2): Linear(in_features=11, out_features=6, bias=True)
              )
            )
            (qkv): Linear(in_features=180, out_features=540, bias=True)
            (attn_drop): Dropout(p=0.0, inplace=False)
            (proj): Linear(in_features=180, out_features=180, bias=True)
            (proj_drop): Dropout(p=0.0, inplace=False)
            (softmax): Softmax(dim=-1)
          )
          (drop_path): DropPath(drop_prob=0.029)
          (norm2): LayerNorm((180,), eps=1e-05, elementwise_affine=True)
          (mlp): Mlp(
            (fc1): Linear(in_features=180, out_features=360, bias=True)
            (act): GELU()
            (fc2): Linear(in_features=360, out_features=180, bias=True)
            (drop): Dropout(p=0.0, inplace=False)
          )
        )
        (5): CrossFormerBlock(
          dim=180, input_resolution=(64, 64), num_heads=6, group_size=8, lsda_flag=1, mlp_ratio=2
          (norm1): LayerNorm((180,), eps=1e-05, elementwise_affine=True)
          (attn): Attention(
            dim=180, num_heads=6
            (pos): DynamicPosBias(
              (pos_proj): Linear(in_features=2, out_features=11, bias=True)
              (pos1): Sequential(
                (0): LayerNorm((11,), eps=1e-05, elementwise_affine=True)
                (1): ReLU(inplace=True)
                (2): Linear(in_features=11, out_features=11, bias=True)
              )
              (pos2): Sequential(
                (0): LayerNorm((11,), eps=1e-05, elementwise_affine=True)
                (1): ReLU(inplace=True)
                (2): Linear(in_features=11, out_features=11, bias=True)
              )
              (pos3): Sequential(
                (0): LayerNorm((11,), eps=1e-05, elementwise_affine=True)
                (1): ReLU(inplace=True)
                (2): Linear(in_features=11, out_features=6, bias=True)
              )
            )
            (qkv): Linear(in_features=180, out_features=540, bias=True)
            (attn_drop): Dropout(p=0.0, inplace=False)
            (proj): Linear(in_features=180, out_features=180, bias=True)
            (proj_drop): Dropout(p=0.0, inplace=False)
            (softmax): Softmax(dim=-1)
          )
          (drop_path): DropPath(drop_prob=0.031)
          (norm2): LayerNorm((180,), eps=1e-05, elementwise_affine=True)
          (mlp): Mlp(
            (fc1): Linear(in_features=180, out_features=360, bias=True)
            (act): GELU()
            (fc2): Linear(in_features=360, out_features=180, bias=True)
            (drop): Dropout(p=0.0, inplace=False)
          )
        )
      )
      (downsample): PatchMerging(
        input_resolution=(64, 64), dim=180
        (reductions): ModuleList(
          (0): Conv2d(180, 90, kernel_size=(1, 1), stride=(1, 1))
          (1): Conv2d(180, 90, kernel_size=(3, 3), stride=(1, 1), padding=(1, 1))
        )
        (norm): LayerNorm((180,), eps=1e-05, elementwise_affine=True)
      )
    )
    (2): Stage(
      dim=180, depth=6
      (blocks): ModuleList(
        (0): CrossFormerBlock(
          dim=180, input_resolution=(64, 64), num_heads=6, group_size=8, lsda_flag=0, mlp_ratio=2
          (norm1): LayerNorm((180,), eps=1e-05, elementwise_affine=True)
          (attn): Attention(
            dim=180, num_heads=6
            (pos): DynamicPosBias(
              (pos_proj): Linear(in_features=2, out_features=11, bias=True)
              (pos1): Sequential(
                (0): LayerNorm((11,), eps=1e-05, elementwise_affine=True)
                (1): ReLU(inplace=True)
                (2): Linear(in_features=11, out_features=11, bias=True)
              )
              (pos2): Sequential(
                (0): LayerNorm((11,), eps=1e-05, elementwise_affine=True)
                (1): ReLU(inplace=True)
                (2): Linear(in_features=11, out_features=11, bias=True)
              )
              (pos3): Sequential(
                (0): LayerNorm((11,), eps=1e-05, elementwise_affine=True)
                (1): ReLU(inplace=True)
                (2): Linear(in_features=11, out_features=6, bias=True)
              )
            )
            (qkv): Linear(in_features=180, out_features=540, bias=True)
            (attn_drop): Dropout(p=0.0, inplace=False)
            (proj): Linear(in_features=180, out_features=180, bias=True)
            (proj_drop): Dropout(p=0.0, inplace=False)
            (softmax): Softmax(dim=-1)
          )
          (drop_path): DropPath(drop_prob=0.034)
          (norm2): LayerNorm((180,), eps=1e-05, elementwise_affine=True)
          (mlp): Mlp(
            (fc1): Linear(in_features=180, out_features=360, bias=True)
            (act): GELU()
            (fc2): Linear(in_features=360, out_features=180, bias=True)
            (drop): Dropout(p=0.0, inplace=False)
          )
        )
        (1): CrossFormerBlock(
          dim=180, input_resolution=(64, 64), num_heads=6, group_size=8, lsda_flag=1, mlp_ratio=2
          (norm1): LayerNorm((180,), eps=1e-05, elementwise_affine=True)
          (attn): Attention(
            dim=180, num_heads=6
            (pos): DynamicPosBias(
              (pos_proj): Linear(in_features=2, out_features=11, bias=True)
              (pos1): Sequential(
                (0): LayerNorm((11,), eps=1e-05, elementwise_affine=True)
                (1): ReLU(inplace=True)
                (2): Linear(in_features=11, out_features=11, bias=True)
              )
              (pos2): Sequential(
                (0): LayerNorm((11,), eps=1e-05, elementwise_affine=True)
                (1): ReLU(inplace=True)
                (2): Linear(in_features=11, out_features=11, bias=True)
              )
              (pos3): Sequential(
                (0): LayerNorm((11,), eps=1e-05, elementwise_affine=True)
                (1): ReLU(inplace=True)
                (2): Linear(in_features=11, out_features=6, bias=True)
              )
            )
            (qkv): Linear(in_features=180, out_features=540, bias=True)
            (attn_drop): Dropout(p=0.0, inplace=False)
            (proj): Linear(in_features=180, out_features=180, bias=True)
            (proj_drop): Dropout(p=0.0, inplace=False)
            (softmax): Softmax(dim=-1)
          )
          (drop_path): DropPath(drop_prob=0.037)
          (norm2): LayerNorm((180,), eps=1e-05, elementwise_affine=True)
          (mlp): Mlp(
            (fc1): Linear(in_features=180, out_features=360, bias=True)
            (act): GELU()
            (fc2): Linear(in_features=360, out_features=180, bias=True)
            (drop): Dropout(p=0.0, inplace=False)
          )
        )
        (2): CrossFormerBlock(
          dim=180, input_resolution=(64, 64), num_heads=6, group_size=8, lsda_flag=0, mlp_ratio=2
          (norm1): LayerNorm((180,), eps=1e-05, elementwise_affine=True)
          (attn): Attention(
            dim=180, num_heads=6
            (pos): DynamicPosBias(
              (pos_proj): Linear(in_features=2, out_features=11, bias=True)
              (pos1): Sequential(
                (0): LayerNorm((11,), eps=1e-05, elementwise_affine=True)
                (1): ReLU(inplace=True)
                (2): Linear(in_features=11, out_features=11, bias=True)
              )
              (pos2): Sequential(
                (0): LayerNorm((11,), eps=1e-05, elementwise_affine=True)
                (1): ReLU(inplace=True)
                (2): Linear(in_features=11, out_features=11, bias=True)
              )
              (pos3): Sequential(
                (0): LayerNorm((11,), eps=1e-05, elementwise_affine=True)
                (1): ReLU(inplace=True)
                (2): Linear(in_features=11, out_features=6, bias=True)
              )
            )
            (qkv): Linear(in_features=180, out_features=540, bias=True)
            (attn_drop): Dropout(p=0.0, inplace=False)
            (proj): Linear(in_features=180, out_features=180, bias=True)
            (proj_drop): Dropout(p=0.0, inplace=False)
            (softmax): Softmax(dim=-1)
          )
          (drop_path): DropPath(drop_prob=0.040)
          (norm2): LayerNorm((180,), eps=1e-05, elementwise_affine=True)
          (mlp): Mlp(
            (fc1): Linear(in_features=180, out_features=360, bias=True)
            (act): GELU()
            (fc2): Linear(in_features=360, out_features=180, bias=True)
            (drop): Dropout(p=0.0, inplace=False)
          )
        )
        (3): CrossFormerBlock(
          dim=180, input_resolution=(64, 64), num_heads=6, group_size=8, lsda_flag=1, mlp_ratio=2
          (norm1): LayerNorm((180,), eps=1e-05, elementwise_affine=True)
          (attn): Attention(
            dim=180, num_heads=6
            (pos): DynamicPosBias(
              (pos_proj): Linear(in_features=2, out_features=11, bias=True)
              (pos1): Sequential(
                (0): LayerNorm((11,), eps=1e-05, elementwise_affine=True)
                (1): ReLU(inplace=True)
                (2): Linear(in_features=11, out_features=11, bias=True)
              )
              (pos2): Sequential(
                (0): LayerNorm((11,), eps=1e-05, elementwise_affine=True)
                (1): ReLU(inplace=True)
                (2): Linear(in_features=11, out_features=11, bias=True)
              )
              (pos3): Sequential(
                (0): LayerNorm((11,), eps=1e-05, elementwise_affine=True)
                (1): ReLU(inplace=True)
                (2): Linear(in_features=11, out_features=6, bias=True)
              )
            )
            (qkv): Linear(in_features=180, out_features=540, bias=True)
            (attn_drop): Dropout(p=0.0, inplace=False)
            (proj): Linear(in_features=180, out_features=180, bias=True)
            (proj_drop): Dropout(p=0.0, inplace=False)
            (softmax): Softmax(dim=-1)
          )
          (drop_path): DropPath(drop_prob=0.043)
          (norm2): LayerNorm((180,), eps=1e-05, elementwise_affine=True)
          (mlp): Mlp(
            (fc1): Linear(in_features=180, out_features=360, bias=True)
            (act): GELU()
            (fc2): Linear(in_features=360, out_features=180, bias=True)
            (drop): Dropout(p=0.0, inplace=False)
          )
        )
        (4): CrossFormerBlock(
          dim=180, input_resolution=(64, 64), num_heads=6, group_size=8, lsda_flag=0, mlp_ratio=2
          (norm1): LayerNorm((180,), eps=1e-05, elementwise_affine=True)
          (attn): Attention(
            dim=180, num_heads=6
            (pos): DynamicPosBias(
              (pos_proj): Linear(in_features=2, out_features=11, bias=True)
              (pos1): Sequential(
                (0): LayerNorm((11,), eps=1e-05, elementwise_affine=True)
                (1): ReLU(inplace=True)
                (2): Linear(in_features=11, out_features=11, bias=True)
              )
              (pos2): Sequential(
                (0): LayerNorm((11,), eps=1e-05, elementwise_affine=True)
                (1): ReLU(inplace=True)
                (2): Linear(in_features=11, out_features=11, bias=True)
              )
              (pos3): Sequential(
                (0): LayerNorm((11,), eps=1e-05, elementwise_affine=True)
                (1): ReLU(inplace=True)
                (2): Linear(in_features=11, out_features=6, bias=True)
              )
            )
            (qkv): Linear(in_features=180, out_features=540, bias=True)
            (attn_drop): Dropout(p=0.0, inplace=False)
            (proj): Linear(in_features=180, out_features=180, bias=True)
            (proj_drop): Dropout(p=0.0, inplace=False)
            (softmax): Softmax(dim=-1)
          )
          (drop_path): DropPath(drop_prob=0.046)
          (norm2): LayerNorm((180,), eps=1e-05, elementwise_affine=True)
          (mlp): Mlp(
            (fc1): Linear(in_features=180, out_features=360, bias=True)
            (act): GELU()
            (fc2): Linear(in_features=360, out_features=180, bias=True)
            (drop): Dropout(p=0.0, inplace=False)
          )
        )
        (5): CrossFormerBlock(
          dim=180, input_resolution=(64, 64), num_heads=6, group_size=8, lsda_flag=1, mlp_ratio=2
          (norm1): LayerNorm((180,), eps=1e-05, elementwise_affine=True)
          (attn): Attention(
            dim=180, num_heads=6
            (pos): DynamicPosBias(
              (pos_proj): Linear(in_features=2, out_features=11, bias=True)
              (pos1): Sequential(
                (0): LayerNorm((11,), eps=1e-05, elementwise_affine=True)
                (1): ReLU(inplace=True)
                (2): Linear(in_features=11, out_features=11, bias=True)
              )
              (pos2): Sequential(
                (0): LayerNorm((11,), eps=1e-05, elementwise_affine=True)
                (1): ReLU(inplace=True)
                (2): Linear(in_features=11, out_features=11, bias=True)
              )
              (pos3): Sequential(
                (0): LayerNorm((11,), eps=1e-05, elementwise_affine=True)
                (1): ReLU(inplace=True)
                (2): Linear(in_features=11, out_features=6, bias=True)
              )
            )
            (qkv): Linear(in_features=180, out_features=540, bias=True)
            (attn_drop): Dropout(p=0.0, inplace=False)
            (proj): Linear(in_features=180, out_features=180, bias=True)
            (proj_drop): Dropout(p=0.0, inplace=False)
            (softmax): Softmax(dim=-1)
          )
          (drop_path): DropPath(drop_prob=0.049)
          (norm2): LayerNorm((180,), eps=1e-05, elementwise_affine=True)
          (mlp): Mlp(
            (fc1): Linear(in_features=180, out_features=360, bias=True)
            (act): GELU()
            (fc2): Linear(in_features=360, out_features=180, bias=True)
            (drop): Dropout(p=0.0, inplace=False)
          )
        )
      )
      (downsample): PatchMerging(
        input_resolution=(64, 64), dim=180
        (reductions): ModuleList(
          (0): Conv2d(180, 90, kernel_size=(1, 1), stride=(1, 1))
          (1): Conv2d(180, 90, kernel_size=(3, 3), stride=(1, 1), padding=(1, 1))
        )
        (norm): LayerNorm((180,), eps=1e-05, elementwise_affine=True)
      )
    )
    (3): Stage(
      dim=180, depth=6
      (blocks): ModuleList(
        (0): CrossFormerBlock(
          dim=180, input_resolution=(64, 64), num_heads=6, group_size=8, lsda_flag=0, mlp_ratio=2
          (norm1): LayerNorm((180,), eps=1e-05, elementwise_affine=True)
          (attn): Attention(
            dim=180, num_heads=6
            (pos): DynamicPosBias(
              (pos_proj): Linear(in_features=2, out_features=11, bias=True)
              (pos1): Sequential(
                (0): LayerNorm((11,), eps=1e-05, elementwise_affine=True)
                (1): ReLU(inplace=True)
                (2): Linear(in_features=11, out_features=11, bias=True)
              )
              (pos2): Sequential(
                (0): LayerNorm((11,), eps=1e-05, elementwise_affine=True)
                (1): ReLU(inplace=True)
                (2): Linear(in_features=11, out_features=11, bias=True)
              )
              (pos3): Sequential(
                (0): LayerNorm((11,), eps=1e-05, elementwise_affine=True)
                (1): ReLU(inplace=True)
                (2): Linear(in_features=11, out_features=6, bias=True)
              )
            )
            (qkv): Linear(in_features=180, out_features=540, bias=True)
            (attn_drop): Dropout(p=0.0, inplace=False)
            (proj): Linear(in_features=180, out_features=180, bias=True)
            (proj_drop): Dropout(p=0.0, inplace=False)
            (softmax): Softmax(dim=-1)
          )
          (drop_path): DropPath(drop_prob=0.051)
          (norm2): LayerNorm((180,), eps=1e-05, elementwise_affine=True)
          (mlp): Mlp(
            (fc1): Linear(in_features=180, out_features=360, bias=True)
            (act): GELU()
            (fc2): Linear(in_features=360, out_features=180, bias=True)
            (drop): Dropout(p=0.0, inplace=False)
          )
        )
        (1): CrossFormerBlock(
          dim=180, input_resolution=(64, 64), num_heads=6, group_size=8, lsda_flag=1, mlp_ratio=2
          (norm1): LayerNorm((180,), eps=1e-05, elementwise_affine=True)
          (attn): Attention(
            dim=180, num_heads=6
            (pos): DynamicPosBias(
              (pos_proj): Linear(in_features=2, out_features=11, bias=True)
              (pos1): Sequential(
                (0): LayerNorm((11,), eps=1e-05, elementwise_affine=True)
                (1): ReLU(inplace=True)
                (2): Linear(in_features=11, out_features=11, bias=True)
              )
              (pos2): Sequential(
                (0): LayerNorm((11,), eps=1e-05, elementwise_affine=True)
                (1): ReLU(inplace=True)
                (2): Linear(in_features=11, out_features=11, bias=True)
              )
              (pos3): Sequential(
                (0): LayerNorm((11,), eps=1e-05, elementwise_affine=True)
                (1): ReLU(inplace=True)
                (2): Linear(in_features=11, out_features=6, bias=True)
              )
            )
            (qkv): Linear(in_features=180, out_features=540, bias=True)
            (attn_drop): Dropout(p=0.0, inplace=False)
            (proj): Linear(in_features=180, out_features=180, bias=True)
            (proj_drop): Dropout(p=0.0, inplace=False)
            (softmax): Softmax(dim=-1)
          )
          (drop_path): DropPath(drop_prob=0.054)
          (norm2): LayerNorm((180,), eps=1e-05, elementwise_affine=True)
          (mlp): Mlp(
            (fc1): Linear(in_features=180, out_features=360, bias=True)
            (act): GELU()
            (fc2): Linear(in_features=360, out_features=180, bias=True)
            (drop): Dropout(p=0.0, inplace=False)
          )
        )
        (2): CrossFormerBlock(
          dim=180, input_resolution=(64, 64), num_heads=6, group_size=8, lsda_flag=0, mlp_ratio=2
          (norm1): LayerNorm((180,), eps=1e-05, elementwise_affine=True)
          (attn): Attention(
            dim=180, num_heads=6
            (pos): DynamicPosBias(
              (pos_proj): Linear(in_features=2, out_features=11, bias=True)
              (pos1): Sequential(
                (0): LayerNorm((11,), eps=1e-05, elementwise_affine=True)
                (1): ReLU(inplace=True)
                (2): Linear(in_features=11, out_features=11, bias=True)
              )
              (pos2): Sequential(
                (0): LayerNorm((11,), eps=1e-05, elementwise_affine=True)
                (1): ReLU(inplace=True)
                (2): Linear(in_features=11, out_features=11, bias=True)
              )
              (pos3): Sequential(
                (0): LayerNorm((11,), eps=1e-05, elementwise_affine=True)
                (1): ReLU(inplace=True)
                (2): Linear(in_features=11, out_features=6, bias=True)
              )
            )
            (qkv): Linear(in_features=180, out_features=540, bias=True)
            (attn_drop): Dropout(p=0.0, inplace=False)
            (proj): Linear(in_features=180, out_features=180, bias=True)
            (proj_drop): Dropout(p=0.0, inplace=False)
            (softmax): Softmax(dim=-1)
          )
          (drop_path): DropPath(drop_prob=0.057)
          (norm2): LayerNorm((180,), eps=1e-05, elementwise_affine=True)
          (mlp): Mlp(
            (fc1): Linear(in_features=180, out_features=360, bias=True)
            (act): GELU()
            (fc2): Linear(in_features=360, out_features=180, bias=True)
            (drop): Dropout(p=0.0, inplace=False)
          )
        )
        (3): CrossFormerBlock(
          dim=180, input_resolution=(64, 64), num_heads=6, group_size=8, lsda_flag=1, mlp_ratio=2
          (norm1): LayerNorm((180,), eps=1e-05, elementwise_affine=True)
          (attn): Attention(
            dim=180, num_heads=6
            (pos): DynamicPosBias(
              (pos_proj): Linear(in_features=2, out_features=11, bias=True)
              (pos1): Sequential(
                (0): LayerNorm((11,), eps=1e-05, elementwise_affine=True)
                (1): ReLU(inplace=True)
                (2): Linear(in_features=11, out_features=11, bias=True)
              )
              (pos2): Sequential(
                (0): LayerNorm((11,), eps=1e-05, elementwise_affine=True)
                (1): ReLU(inplace=True)
                (2): Linear(in_features=11, out_features=11, bias=True)
              )
              (pos3): Sequential(
                (0): LayerNorm((11,), eps=1e-05, elementwise_affine=True)
                (1): ReLU(inplace=True)
                (2): Linear(in_features=11, out_features=6, bias=True)
              )
            )
            (qkv): Linear(in_features=180, out_features=540, bias=True)
            (attn_drop): Dropout(p=0.0, inplace=False)
            (proj): Linear(in_features=180, out_features=180, bias=True)
            (proj_drop): Dropout(p=0.0, inplace=False)
            (softmax): Softmax(dim=-1)
          )
          (drop_path): DropPath(drop_prob=0.060)
          (norm2): LayerNorm((180,), eps=1e-05, elementwise_affine=True)
          (mlp): Mlp(
            (fc1): Linear(in_features=180, out_features=360, bias=True)
            (act): GELU()
            (fc2): Linear(in_features=360, out_features=180, bias=True)
            (drop): Dropout(p=0.0, inplace=False)
          )
        )
        (4): CrossFormerBlock(
          dim=180, input_resolution=(64, 64), num_heads=6, group_size=8, lsda_flag=0, mlp_ratio=2
          (norm1): LayerNorm((180,), eps=1e-05, elementwise_affine=True)
          (attn): Attention(
            dim=180, num_heads=6
            (pos): DynamicPosBias(
              (pos_proj): Linear(in_features=2, out_features=11, bias=True)
              (pos1): Sequential(
                (0): LayerNorm((11,), eps=1e-05, elementwise_affine=True)
                (1): ReLU(inplace=True)
                (2): Linear(in_features=11, out_features=11, bias=True)
              )
              (pos2): Sequential(
                (0): LayerNorm((11,), eps=1e-05, elementwise_affine=True)
                (1): ReLU(inplace=True)
                (2): Linear(in_features=11, out_features=11, bias=True)
              )
              (pos3): Sequential(
                (0): LayerNorm((11,), eps=1e-05, elementwise_affine=True)
                (1): ReLU(inplace=True)
                (2): Linear(in_features=11, out_features=6, bias=True)
              )
            )
            (qkv): Linear(in_features=180, out_features=540, bias=True)
            (attn_drop): Dropout(p=0.0, inplace=False)
            (proj): Linear(in_features=180, out_features=180, bias=True)
            (proj_drop): Dropout(p=0.0, inplace=False)
            (softmax): Softmax(dim=-1)
          )
          (drop_path): DropPath(drop_prob=0.063)
          (norm2): LayerNorm((180,), eps=1e-05, elementwise_affine=True)
          (mlp): Mlp(
            (fc1): Linear(in_features=180, out_features=360, bias=True)
            (act): GELU()
            (fc2): Linear(in_features=360, out_features=180, bias=True)
            (drop): Dropout(p=0.0, inplace=False)
          )
        )
        (5): CrossFormerBlock(
          dim=180, input_resolution=(64, 64), num_heads=6, group_size=8, lsda_flag=1, mlp_ratio=2
          (norm1): LayerNorm((180,), eps=1e-05, elementwise_affine=True)
          (attn): Attention(
            dim=180, num_heads=6
            (pos): DynamicPosBias(
              (pos_proj): Linear(in_features=2, out_features=11, bias=True)
              (pos1): Sequential(
                (0): LayerNorm((11,), eps=1e-05, elementwise_affine=True)
                (1): ReLU(inplace=True)
                (2): Linear(in_features=11, out_features=11, bias=True)
              )
              (pos2): Sequential(
                (0): LayerNorm((11,), eps=1e-05, elementwise_affine=True)
                (1): ReLU(inplace=True)
                (2): Linear(in_features=11, out_features=11, bias=True)
              )
              (pos3): Sequential(
                (0): LayerNorm((11,), eps=1e-05, elementwise_affine=True)
                (1): ReLU(inplace=True)
                (2): Linear(in_features=11, out_features=6, bias=True)
              )
            )
            (qkv): Linear(in_features=180, out_features=540, bias=True)
            (attn_drop): Dropout(p=0.0, inplace=False)
            (proj): Linear(in_features=180, out_features=180, bias=True)
            (proj_drop): Dropout(p=0.0, inplace=False)
            (softmax): Softmax(dim=-1)
          )
          (drop_path): DropPath(drop_prob=0.066)
          (norm2): LayerNorm((180,), eps=1e-05, elementwise_affine=True)
          (mlp): Mlp(
            (fc1): Linear(in_features=180, out_features=360, bias=True)
            (act): GELU()
            (fc2): Linear(in_features=360, out_features=180, bias=True)
            (drop): Dropout(p=0.0, inplace=False)
          )
        )
      )
      (downsample): PatchMerging(
        input_resolution=(64, 64), dim=180
        (reductions): ModuleList(
          (0): Conv2d(180, 90, kernel_size=(1, 1), stride=(1, 1))
          (1): Conv2d(180, 90, kernel_size=(3, 3), stride=(1, 1), padding=(1, 1))
        )
        (norm): LayerNorm((180,), eps=1e-05, elementwise_affine=True)
      )
    )
    (4): Stage(
      dim=180, depth=6
      (blocks): ModuleList(
        (0): CrossFormerBlock(
          dim=180, input_resolution=(64, 64), num_heads=6, group_size=8, lsda_flag=0, mlp_ratio=2
          (norm1): LayerNorm((180,), eps=1e-05, elementwise_affine=True)
          (attn): Attention(
            dim=180, num_heads=6
            (pos): DynamicPosBias(
              (pos_proj): Linear(in_features=2, out_features=11, bias=True)
              (pos1): Sequential(
                (0): LayerNorm((11,), eps=1e-05, elementwise_affine=True)
                (1): ReLU(inplace=True)
                (2): Linear(in_features=11, out_features=11, bias=True)
              )
              (pos2): Sequential(
                (0): LayerNorm((11,), eps=1e-05, elementwise_affine=True)
                (1): ReLU(inplace=True)
                (2): Linear(in_features=11, out_features=11, bias=True)
              )
              (pos3): Sequential(
                (0): LayerNorm((11,), eps=1e-05, elementwise_affine=True)
                (1): ReLU(inplace=True)
                (2): Linear(in_features=11, out_features=6, bias=True)
              )
            )
            (qkv): Linear(in_features=180, out_features=540, bias=True)
            (attn_drop): Dropout(p=0.0, inplace=False)
            (proj): Linear(in_features=180, out_features=180, bias=True)
            (proj_drop): Dropout(p=0.0, inplace=False)
            (softmax): Softmax(dim=-1)
          )
          (drop_path): DropPath(drop_prob=0.069)
          (norm2): LayerNorm((180,), eps=1e-05, elementwise_affine=True)
          (mlp): Mlp(
            (fc1): Linear(in_features=180, out_features=360, bias=True)
            (act): GELU()
            (fc2): Linear(in_features=360, out_features=180, bias=True)
            (drop): Dropout(p=0.0, inplace=False)
          )
        )
        (1): CrossFormerBlock(
          dim=180, input_resolution=(64, 64), num_heads=6, group_size=8, lsda_flag=1, mlp_ratio=2
          (norm1): LayerNorm((180,), eps=1e-05, elementwise_affine=True)
          (attn): Attention(
            dim=180, num_heads=6
            (pos): DynamicPosBias(
              (pos_proj): Linear(in_features=2, out_features=11, bias=True)
              (pos1): Sequential(
                (0): LayerNorm((11,), eps=1e-05, elementwise_affine=True)
                (1): ReLU(inplace=True)
                (2): Linear(in_features=11, out_features=11, bias=True)
              )
              (pos2): Sequential(
                (0): LayerNorm((11,), eps=1e-05, elementwise_affine=True)
                (1): ReLU(inplace=True)
                (2): Linear(in_features=11, out_features=11, bias=True)
              )
              (pos3): Sequential(
                (0): LayerNorm((11,), eps=1e-05, elementwise_affine=True)
                (1): ReLU(inplace=True)
                (2): Linear(in_features=11, out_features=6, bias=True)
              )
            )
            (qkv): Linear(in_features=180, out_features=540, bias=True)
            (attn_drop): Dropout(p=0.0, inplace=False)
            (proj): Linear(in_features=180, out_features=180, bias=True)
            (proj_drop): Dropout(p=0.0, inplace=False)
            (softmax): Softmax(dim=-1)
          )
          (drop_path): DropPath(drop_prob=0.071)
          (norm2): LayerNorm((180,), eps=1e-05, elementwise_affine=True)
          (mlp): Mlp(
            (fc1): Linear(in_features=180, out_features=360, bias=True)
            (act): GELU()
            (fc2): Linear(in_features=360, out_features=180, bias=True)
            (drop): Dropout(p=0.0, inplace=False)
          )
        )
        (2): CrossFormerBlock(
          dim=180, input_resolution=(64, 64), num_heads=6, group_size=8, lsda_flag=0, mlp_ratio=2
          (norm1): LayerNorm((180,), eps=1e-05, elementwise_affine=True)
          (attn): Attention(
            dim=180, num_heads=6
            (pos): DynamicPosBias(
              (pos_proj): Linear(in_features=2, out_features=11, bias=True)
              (pos1): Sequential(
                (0): LayerNorm((11,), eps=1e-05, elementwise_affine=True)
                (1): ReLU(inplace=True)
                (2): Linear(in_features=11, out_features=11, bias=True)
              )
              (pos2): Sequential(
                (0): LayerNorm((11,), eps=1e-05, elementwise_affine=True)
                (1): ReLU(inplace=True)
                (2): Linear(in_features=11, out_features=11, bias=True)
              )
              (pos3): Sequential(
                (0): LayerNorm((11,), eps=1e-05, elementwise_affine=True)
                (1): ReLU(inplace=True)
                (2): Linear(in_features=11, out_features=6, bias=True)
              )
            )
            (qkv): Linear(in_features=180, out_features=540, bias=True)
            (attn_drop): Dropout(p=0.0, inplace=False)
            (proj): Linear(in_features=180, out_features=180, bias=True)
            (proj_drop): Dropout(p=0.0, inplace=False)
            (softmax): Softmax(dim=-1)
          )
          (drop_path): DropPath(drop_prob=0.074)
          (norm2): LayerNorm((180,), eps=1e-05, elementwise_affine=True)
          (mlp): Mlp(
            (fc1): Linear(in_features=180, out_features=360, bias=True)
            (act): GELU()
            (fc2): Linear(in_features=360, out_features=180, bias=True)
            (drop): Dropout(p=0.0, inplace=False)
          )
        )
        (3): CrossFormerBlock(
          dim=180, input_resolution=(64, 64), num_heads=6, group_size=8, lsda_flag=1, mlp_ratio=2
          (norm1): LayerNorm((180,), eps=1e-05, elementwise_affine=True)
          (attn): Attention(
            dim=180, num_heads=6
            (pos): DynamicPosBias(
              (pos_proj): Linear(in_features=2, out_features=11, bias=True)
              (pos1): Sequential(
                (0): LayerNorm((11,), eps=1e-05, elementwise_affine=True)
                (1): ReLU(inplace=True)
                (2): Linear(in_features=11, out_features=11, bias=True)
              )
              (pos2): Sequential(
                (0): LayerNorm((11,), eps=1e-05, elementwise_affine=True)
                (1): ReLU(inplace=True)
                (2): Linear(in_features=11, out_features=11, bias=True)
              )
              (pos3): Sequential(
                (0): LayerNorm((11,), eps=1e-05, elementwise_affine=True)
                (1): ReLU(inplace=True)
                (2): Linear(in_features=11, out_features=6, bias=True)
              )
            )
            (qkv): Linear(in_features=180, out_features=540, bias=True)
            (attn_drop): Dropout(p=0.0, inplace=False)
            (proj): Linear(in_features=180, out_features=180, bias=True)
            (proj_drop): Dropout(p=0.0, inplace=False)
            (softmax): Softmax(dim=-1)
          )
          (drop_path): DropPath(drop_prob=0.077)
          (norm2): LayerNorm((180,), eps=1e-05, elementwise_affine=True)
          (mlp): Mlp(
            (fc1): Linear(in_features=180, out_features=360, bias=True)
            (act): GELU()
            (fc2): Linear(in_features=360, out_features=180, bias=True)
            (drop): Dropout(p=0.0, inplace=False)
          )
        )
        (4): CrossFormerBlock(
          dim=180, input_resolution=(64, 64), num_heads=6, group_size=8, lsda_flag=0, mlp_ratio=2
          (norm1): LayerNorm((180,), eps=1e-05, elementwise_affine=True)
          (attn): Attention(
            dim=180, num_heads=6
            (pos): DynamicPosBias(
              (pos_proj): Linear(in_features=2, out_features=11, bias=True)
              (pos1): Sequential(
                (0): LayerNorm((11,), eps=1e-05, elementwise_affine=True)
                (1): ReLU(inplace=True)
                (2): Linear(in_features=11, out_features=11, bias=True)
              )
              (pos2): Sequential(
                (0): LayerNorm((11,), eps=1e-05, elementwise_affine=True)
                (1): ReLU(inplace=True)
                (2): Linear(in_features=11, out_features=11, bias=True)
              )
              (pos3): Sequential(
                (0): LayerNorm((11,), eps=1e-05, elementwise_affine=True)
                (1): ReLU(inplace=True)
                (2): Linear(in_features=11, out_features=6, bias=True)
              )
            )
            (qkv): Linear(in_features=180, out_features=540, bias=True)
            (attn_drop): Dropout(p=0.0, inplace=False)
            (proj): Linear(in_features=180, out_features=180, bias=True)
            (proj_drop): Dropout(p=0.0, inplace=False)
            (softmax): Softmax(dim=-1)
          )
          (drop_path): DropPath(drop_prob=0.080)
          (norm2): LayerNorm((180,), eps=1e-05, elementwise_affine=True)
          (mlp): Mlp(
            (fc1): Linear(in_features=180, out_features=360, bias=True)
            (act): GELU()
            (fc2): Linear(in_features=360, out_features=180, bias=True)
            (drop): Dropout(p=0.0, inplace=False)
          )
        )
        (5): CrossFormerBlock(
          dim=180, input_resolution=(64, 64), num_heads=6, group_size=8, lsda_flag=1, mlp_ratio=2
          (norm1): LayerNorm((180,), eps=1e-05, elementwise_affine=True)
          (attn): Attention(
            dim=180, num_heads=6
            (pos): DynamicPosBias(
              (pos_proj): Linear(in_features=2, out_features=11, bias=True)
              (pos1): Sequential(
                (0): LayerNorm((11,), eps=1e-05, elementwise_affine=True)
                (1): ReLU(inplace=True)
                (2): Linear(in_features=11, out_features=11, bias=True)
              )
              (pos2): Sequential(
                (0): LayerNorm((11,), eps=1e-05, elementwise_affine=True)
                (1): ReLU(inplace=True)
                (2): Linear(in_features=11, out_features=11, bias=True)
              )
              (pos3): Sequential(
                (0): LayerNorm((11,), eps=1e-05, elementwise_affine=True)
                (1): ReLU(inplace=True)
                (2): Linear(in_features=11, out_features=6, bias=True)
              )
            )
            (qkv): Linear(in_features=180, out_features=540, bias=True)
            (attn_drop): Dropout(p=0.0, inplace=False)
            (proj): Linear(in_features=180, out_features=180, bias=True)
            (proj_drop): Dropout(p=0.0, inplace=False)
            (softmax): Softmax(dim=-1)
          )
          (drop_path): DropPath(drop_prob=0.083)
          (norm2): LayerNorm((180,), eps=1e-05, elementwise_affine=True)
          (mlp): Mlp(
            (fc1): Linear(in_features=180, out_features=360, bias=True)
            (act): GELU()
            (fc2): Linear(in_features=360, out_features=180, bias=True)
            (drop): Dropout(p=0.0, inplace=False)
          )
        )
      )
      (downsample): PatchMerging(
        input_resolution=(64, 64), dim=180
        (reductions): ModuleList(
          (0): Conv2d(180, 90, kernel_size=(1, 1), stride=(1, 1))
          (1): Conv2d(180, 90, kernel_size=(3, 3), stride=(1, 1), padding=(1, 1))
        )
        (norm): LayerNorm((180,), eps=1e-05, elementwise_affine=True)
      )
    )
    (5): Stage(
      dim=180, depth=6
      (blocks): ModuleList(
        (0): CrossFormerBlock(
          dim=180, input_resolution=(64, 64), num_heads=6, group_size=8, lsda_flag=0, mlp_ratio=2
          (norm1): LayerNorm((180,), eps=1e-05, elementwise_affine=True)
          (attn): Attention(
            dim=180, num_heads=6
            (pos): DynamicPosBias(
              (pos_proj): Linear(in_features=2, out_features=11, bias=True)
              (pos1): Sequential(
                (0): LayerNorm((11,), eps=1e-05, elementwise_affine=True)
                (1): ReLU(inplace=True)
                (2): Linear(in_features=11, out_features=11, bias=True)
              )
              (pos2): Sequential(
                (0): LayerNorm((11,), eps=1e-05, elementwise_affine=True)
                (1): ReLU(inplace=True)
                (2): Linear(in_features=11, out_features=11, bias=True)
              )
              (pos3): Sequential(
                (0): LayerNorm((11,), eps=1e-05, elementwise_affine=True)
                (1): ReLU(inplace=True)
                (2): Linear(in_features=11, out_features=6, bias=True)
              )
            )
            (qkv): Linear(in_features=180, out_features=540, bias=True)
            (attn_drop): Dropout(p=0.0, inplace=False)
            (proj): Linear(in_features=180, out_features=180, bias=True)
            (proj_drop): Dropout(p=0.0, inplace=False)
            (softmax): Softmax(dim=-1)
          )
          (drop_path): DropPath(drop_prob=0.086)
          (norm2): LayerNorm((180,), eps=1e-05, elementwise_affine=True)
          (mlp): Mlp(
            (fc1): Linear(in_features=180, out_features=360, bias=True)
            (act): GELU()
            (fc2): Linear(in_features=360, out_features=180, bias=True)
            (drop): Dropout(p=0.0, inplace=False)
          )
        )
        (1): CrossFormerBlock(
          dim=180, input_resolution=(64, 64), num_heads=6, group_size=8, lsda_flag=1, mlp_ratio=2
          (norm1): LayerNorm((180,), eps=1e-05, elementwise_affine=True)
          (attn): Attention(
            dim=180, num_heads=6
            (pos): DynamicPosBias(
              (pos_proj): Linear(in_features=2, out_features=11, bias=True)
              (pos1): Sequential(
                (0): LayerNorm((11,), eps=1e-05, elementwise_affine=True)
                (1): ReLU(inplace=True)
                (2): Linear(in_features=11, out_features=11, bias=True)
              )
              (pos2): Sequential(
                (0): LayerNorm((11,), eps=1e-05, elementwise_affine=True)
                (1): ReLU(inplace=True)
                (2): Linear(in_features=11, out_features=11, bias=True)
              )
              (pos3): Sequential(
                (0): LayerNorm((11,), eps=1e-05, elementwise_affine=True)
                (1): ReLU(inplace=True)
                (2): Linear(in_features=11, out_features=6, bias=True)
              )
            )
            (qkv): Linear(in_features=180, out_features=540, bias=True)
            (attn_drop): Dropout(p=0.0, inplace=False)
            (proj): Linear(in_features=180, out_features=180, bias=True)
            (proj_drop): Dropout(p=0.0, inplace=False)
            (softmax): Softmax(dim=-1)
          )
          (drop_path): DropPath(drop_prob=0.089)
          (norm2): LayerNorm((180,), eps=1e-05, elementwise_affine=True)
          (mlp): Mlp(
            (fc1): Linear(in_features=180, out_features=360, bias=True)
            (act): GELU()
            (fc2): Linear(in_features=360, out_features=180, bias=True)
            (drop): Dropout(p=0.0, inplace=False)
          )
        )
        (2): CrossFormerBlock(
          dim=180, input_resolution=(64, 64), num_heads=6, group_size=8, lsda_flag=0, mlp_ratio=2
          (norm1): LayerNorm((180,), eps=1e-05, elementwise_affine=True)
          (attn): Attention(
            dim=180, num_heads=6
            (pos): DynamicPosBias(
              (pos_proj): Linear(in_features=2, out_features=11, bias=True)
              (pos1): Sequential(
                (0): LayerNorm((11,), eps=1e-05, elementwise_affine=True)
                (1): ReLU(inplace=True)
                (2): Linear(in_features=11, out_features=11, bias=True)
              )
              (pos2): Sequential(
                (0): LayerNorm((11,), eps=1e-05, elementwise_affine=True)
                (1): ReLU(inplace=True)
                (2): Linear(in_features=11, out_features=11, bias=True)
              )
              (pos3): Sequential(
                (0): LayerNorm((11,), eps=1e-05, elementwise_affine=True)
                (1): ReLU(inplace=True)
                (2): Linear(in_features=11, out_features=6, bias=True)
              )
            )
            (qkv): Linear(in_features=180, out_features=540, bias=True)
            (attn_drop): Dropout(p=0.0, inplace=False)
            (proj): Linear(in_features=180, out_features=180, bias=True)
            (proj_drop): Dropout(p=0.0, inplace=False)
            (softmax): Softmax(dim=-1)
          )
          (drop_path): DropPath(drop_prob=0.091)
          (norm2): LayerNorm((180,), eps=1e-05, elementwise_affine=True)
          (mlp): Mlp(
            (fc1): Linear(in_features=180, out_features=360, bias=True)
            (act): GELU()
            (fc2): Linear(in_features=360, out_features=180, bias=True)
            (drop): Dropout(p=0.0, inplace=False)
          )
        )
        (3): CrossFormerBlock(
          dim=180, input_resolution=(64, 64), num_heads=6, group_size=8, lsda_flag=1, mlp_ratio=2
          (norm1): LayerNorm((180,), eps=1e-05, elementwise_affine=True)
          (attn): Attention(
            dim=180, num_heads=6
            (pos): DynamicPosBias(
              (pos_proj): Linear(in_features=2, out_features=11, bias=True)
              (pos1): Sequential(
                (0): LayerNorm((11,), eps=1e-05, elementwise_affine=True)
                (1): ReLU(inplace=True)
                (2): Linear(in_features=11, out_features=11, bias=True)
              )
              (pos2): Sequential(
                (0): LayerNorm((11,), eps=1e-05, elementwise_affine=True)
                (1): ReLU(inplace=True)
                (2): Linear(in_features=11, out_features=11, bias=True)
              )
              (pos3): Sequential(
                (0): LayerNorm((11,), eps=1e-05, elementwise_affine=True)
                (1): ReLU(inplace=True)
                (2): Linear(in_features=11, out_features=6, bias=True)
              )
            )
            (qkv): Linear(in_features=180, out_features=540, bias=True)
            (attn_drop): Dropout(p=0.0, inplace=False)
            (proj): Linear(in_features=180, out_features=180, bias=True)
            (proj_drop): Dropout(p=0.0, inplace=False)
            (softmax): Softmax(dim=-1)
          )
          (drop_path): DropPath(drop_prob=0.094)
          (norm2): LayerNorm((180,), eps=1e-05, elementwise_affine=True)
          (mlp): Mlp(
            (fc1): Linear(in_features=180, out_features=360, bias=True)
            (act): GELU()
            (fc2): Linear(in_features=360, out_features=180, bias=True)
            (drop): Dropout(p=0.0, inplace=False)
          )
        )
        (4): CrossFormerBlock(
          dim=180, input_resolution=(64, 64), num_heads=6, group_size=8, lsda_flag=0, mlp_ratio=2
          (norm1): LayerNorm((180,), eps=1e-05, elementwise_affine=True)
          (attn): Attention(
            dim=180, num_heads=6
            (pos): DynamicPosBias(
              (pos_proj): Linear(in_features=2, out_features=11, bias=True)
              (pos1): Sequential(
                (0): LayerNorm((11,), eps=1e-05, elementwise_affine=True)
                (1): ReLU(inplace=True)
                (2): Linear(in_features=11, out_features=11, bias=True)
              )
              (pos2): Sequential(
                (0): LayerNorm((11,), eps=1e-05, elementwise_affine=True)
                (1): ReLU(inplace=True)
                (2): Linear(in_features=11, out_features=11, bias=True)
              )
              (pos3): Sequential(
                (0): LayerNorm((11,), eps=1e-05, elementwise_affine=True)
                (1): ReLU(inplace=True)
                (2): Linear(in_features=11, out_features=6, bias=True)
              )
            )
            (qkv): Linear(in_features=180, out_features=540, bias=True)
            (attn_drop): Dropout(p=0.0, inplace=False)
            (proj): Linear(in_features=180, out_features=180, bias=True)
            (proj_drop): Dropout(p=0.0, inplace=False)
            (softmax): Softmax(dim=-1)
          )
          (drop_path): DropPath(drop_prob=0.097)
          (norm2): LayerNorm((180,), eps=1e-05, elementwise_affine=True)
          (mlp): Mlp(
            (fc1): Linear(in_features=180, out_features=360, bias=True)
            (act): GELU()
            (fc2): Linear(in_features=360, out_features=180, bias=True)
            (drop): Dropout(p=0.0, inplace=False)
          )
        )
        (5): CrossFormerBlock(
          dim=180, input_resolution=(64, 64), num_heads=6, group_size=8, lsda_flag=1, mlp_ratio=2
          (norm1): LayerNorm((180,), eps=1e-05, elementwise_affine=True)
          (attn): Attention(
            dim=180, num_heads=6
            (pos): DynamicPosBias(
              (pos_proj): Linear(in_features=2, out_features=11, bias=True)
              (pos1): Sequential(
                (0): LayerNorm((11,), eps=1e-05, elementwise_affine=True)
                (1): ReLU(inplace=True)
                (2): Linear(in_features=11, out_features=11, bias=True)
              )
              (pos2): Sequential(
                (0): LayerNorm((11,), eps=1e-05, elementwise_affine=True)
                (1): ReLU(inplace=True)
                (2): Linear(in_features=11, out_features=11, bias=True)
              )
              (pos3): Sequential(
                (0): LayerNorm((11,), eps=1e-05, elementwise_affine=True)
                (1): ReLU(inplace=True)
                (2): Linear(in_features=11, out_features=6, bias=True)
              )
            )
            (qkv): Linear(in_features=180, out_features=540, bias=True)
            (attn_drop): Dropout(p=0.0, inplace=False)
            (proj): Linear(in_features=180, out_features=180, bias=True)
            (proj_drop): Dropout(p=0.0, inplace=False)
            (softmax): Softmax(dim=-1)
          )
          (drop_path): DropPath(drop_prob=0.100)
          (norm2): LayerNorm((180,), eps=1e-05, elementwise_affine=True)
          (mlp): Mlp(
            (fc1): Linear(in_features=180, out_features=360, bias=True)
            (act): GELU()
            (fc2): Linear(in_features=360, out_features=180, bias=True)
            (drop): Dropout(p=0.0, inplace=False)
          )
        )
      )
    )
  )
  (norm): LayerNorm((180,), eps=1e-05, elementwise_affine=True)
  (conv_after_body): Conv2d(180, 180, kernel_size=(3, 3), stride=(1, 1), padding=(1, 1))
  (conv_before_upsample): Sequential(
    (0): Conv2d(180, 64, kernel_size=(3, 3), stride=(1, 1), padding=(1, 1))
    (1): LeakyReLU(negative_slope=0.01, inplace=True)
  )
  (upsample): Upsample(
    (0): Conv2d(64, 256, kernel_size=(3, 3), stride=(1, 1), padding=(1, 1))
    (1): PixelShuffle(upscale_factor=2)
  )
  (conv_last): Conv2d(64, 3, kernel_size=(3, 3), stride=(1, 1), padding=(1, 1))
)
2022-07-28 14:43:24,235 INFO: Loss [L1Loss] is created.
2022-07-28 14:43:24,238 INFO: Model [ARTOldModel] is created.
2022-07-28 14:43:36,989 INFO: Start training from epoch: 0, iter: 0
2022-07-28 14:48:49,604 INFO: [train..][epoch:  0, iter:     200, lr:(2.000e-04,)] [eta: 8 days, 10:28:56, time (data): 1.563 (0.078)] l_pix: 9.5859e-02 
2022-07-28 14:53:37,776 INFO: [train..][epoch:  0, iter:     400, lr:(2.000e-04,)] [eta: 8 days, 9:10:59, time (data): 1.440 (0.002)] l_pix: 4.8376e-02 
…
